Model: "sequential_6"
┏━━━━━━━━━━━━━━━━━━━━━━━━━━━━━━━━━┳━━━━━━━━━━━━━━━━━━━━━━━━┳━━━━━━━━━━━━━━━┓
┃ Layer (type)                    ┃ Output Shape           ┃       Param # ┃
┡━━━━━━━━━━━━━━━━━━━━━━━━━━━━━━━━━╇━━━━━━━━━━━━━━━━━━━━━━━━╇━━━━━━━━━━━━━━━┩
│ lstm_12 (LSTM)                  │ (None, 24, 256)        │       264,192 │
├─────────────────────────────────┼────────────────────────┼───────────────┤
│ lstm_13 (LSTM)                  │ (None, 256)            │       525,312 │
├─────────────────────────────────┼────────────────────────┼───────────────┤
│ dropout_12 (Dropout)            │ (None, 256)            │             0 │
├─────────────────────────────────┼────────────────────────┼───────────────┤
│ dense_12 (Dense)                │ (None, 256)            │        65,792 │
├─────────────────────────────────┼────────────────────────┼───────────────┤
│ dropout_13 (Dropout)            │ (None, 256)            │             0 │
├─────────────────────────────────┼────────────────────────┼───────────────┤
│ dense_13 (Dense)                │ (None, 1)              │           257 │
└─────────────────────────────────┴────────────────────────┴───────────────┘
 Total params: 855,553 (3.26 MB)
 Trainable params: 855,553 (3.26 MB)
 Non-trainable params: 0 (0.00 B)
Epoch 1/50
9460/9460 - 67s - 7ms/step - loss: 0.0055 - root_mean_squared_error: 0.0742 - val_loss: 0.0046 - val_root_mean_squared_error: 0.0680
Epoch 2/50
9460/9460 - 65s - 7ms/step - loss: 0.0049 - root_mean_squared_error: 0.0702 - val_loss: 0.0042 - val_root_mean_squared_error: 0.0651
…
